models/resulting_architecture_k_4_c_5.tflite (tflite, 18984 bytes, 8 tensors)

model_5/dense_11/MatMul i1 [2, 19] scale=0.006191245 zero_point=0
000000 49 43 3d ef 0e 31 b6 32 ec 4b 36 2e c3 17 31 1f
       0.45196086 0.4148134 0.37766594 -0.10525116 0.086677425 0.30337098 -0.45815212 0.30956224 -0.123824894 0.46434337 0.33432722 0.28479725 -0.37766594 0.14239863 0.30337098 0.1919286
000010 44 f2 c0 4b 4a 0e 81 b0 c4 3e ff ee 28 11 16 b0
       0.42100465 -0.086677425 -0.39623967 0.46434337 0.45815212 0.086677425 -0.7862881 -0.49529958 -0.37147468 0.3838572 -0.006191245 -0.11144241 0.24764979 0.10525116 0.13620739 -0.49529958
000020 12 33 06 a7 f6 35
       0.11144241 0.3157535 0.03714747 -0.5510208 -0.061912447 0.32813597

model_5/dense_10/MatMul i1 [19, 19] scale=0.007209415 zero_point=0
000000 19 c4 db f8 aa cf 04 fd fe 27 22 dd c1 b4 0d 01
       0.18023537 -0.4325649 -0.26674837 -0.05767532 -0.6200097 -0.35326135 0.02883766 -0.021628246 -0.01441883 0.28116718 0.24512011 -0.25232953 -0.45419315 -0.5479155 0.093722396 0.007209415
000010 0f 17 3a 21 e7 3d 32 32 04 ef 03 c8 dd f7 ee ef
       0.10814123 0.16581655 0.41814607 0.2379107 -0.18023537 0.43977433 0.36047074 0.36047074 0.02883766 -0.122560054 0.021628246 -0.40372723 -0.25232953 -0.06488474 -0.12976947 -0.122560054
000020 e5 a7 33 05 fe 0d 0c 15 dd f2 e0 05 ed 33 d3 d0
       -0.19465421 -0.6416379 0.36768016 0.036047075 -0.01441883 0.093722396 0.08651298 0.15139772 -0.25232953 -0.10093181 -0.23070128 0.036047075 -0.13697888 0.36768016 -0.32442367 -0.34605193
000030 2a 12 07 03 23 1f 36 26 dd f9 da fc ec 25 17 ff
       0.30279544 0.12976947 0.050465904 0.021628246 0.25232953 0.22349186 0.38930842 0.27395776 -0.25232953 -0.050465904 -0.27395776 -0.02883766 -0.1441883 0.26674837 0.16581655 -0.007209415
000040 30 19 e0 f6 09 0e d7 f0 f5 00 15 d0 2d 31 db 09
       0.34605193 0.18023537 -0.23070128 -0.07209415 0.06488474 0.10093181 -0.29558602 -0.11535064 -0.07930356 0.0 0.15139772 -0.34605193 0.32442367 0.35326135 -0.26674837 0.06488474
000050 ee f5 31 db e4 47 2b f9 ee 0c 34 07 1f 02 08 f7
       -0.12976947 -0.07930356 0.35326135 -0.26674837 -0.20186362 0.5118685 0.31000486 -0.050465904 -0.12976947 0.08651298 0.37488958 0.050465904 0.22349186 0.01441883 0.05767532 -0.06488474
000060 e7 f5 0e 0c 09 df fa e1 de 0e fa 26 18 07 00 ec
       -0.18023537 -0.07930356 0.10093181 0.08651298 0.06488474 -0.2379107 -0.04325649 -0.22349186 -0.24512011 0.10093181 -0.04325649 0.27395776 0.17302597 0.050465904 0.0 -0.1441883
000070 12 f0 e9 2e e4 0f e0 ce 03 e2 f5 11 f6 ee ee 08
       0.12976947 -0.11535064 -0.16581655 0.3316331 -0.20186362 0.10814123 -0.23070128 -0.36047074 0.021628246 -0.21628246 -0.07930356 0.122560054 -0.07209415 -0.12976947 -0.12976947 0.05767532
000080 cb ce 09 00 f3 24 d2 3c fe eb f4 f0 d3 c9 ee fd
       -0.382099 -0.36047074 0.06488474 0.0 -0.093722396 0.25953895 -0.3316331 0.4325649 -0.01441883 -0.15139772 -0.08651298 -0.11535064 -0.32442367 -0.39651784 -0.12976947 -0.021628246
000090 09 17 3f f9 fd 4a 14 fc fb fd 28 0e 0d 1a e7 b5
       0.06488474 0.16581655 0.45419315 -0.050465904 -0.021628246 0.53349674 0.1441883 -0.02883766 -0.036047075 -0.021628246 0.2883766 0.10093181 0.093722396 0.18744479 -0.18023537 -0.54070616
0000a0 f9 f8 25 20 c4 0b d5 e7 cc 18 04 15 da 12 11 ca
       -0.050465904 -0.05767532 0.26674837 0.23070128 -0.4325649 0.07930356 -0.31000486 -0.18023537 -0.37488958 0.17302597 0.02883766 0.15139772 -0.27395776 0.12976947 0.122560054 -0.38930842
0000b0 10 28 b2 bb da 32 07 ff 3e d1 32 f7 fb 25 18 fe
       0.11535064 0.2883766 -0.56233436 -0.49744964 -0.27395776 0.36047074 0.050465904 -0.007209415 0.44698372 -0.3388425 0.36047074 -0.06488474 -0.036047075 0.26674837 0.17302597 -0.01441883
0000c0 04 32 04 31 05 2c c8 06 16 e3 bc 2d 31 19 ff 25
       0.02883766 0.36047074 0.02883766 0.35326135 0.036047075 0.31721425 -0.40372723 0.04325649 0.15860713 -0.20907304 -0.49024022 0.32442367 0.35326135 0.18023537 -0.007209415 0.26674837
0000d0 2c ed 0a f2 27 30 f3 09 fc d8 2e cf 2e 0a d7 da
       0.31721425 -0.13697888 0.07209415 -0.10093181 0.28116718 0.34605193 -0.093722396 0.06488474 -0.02883766 -0.2883766 0.3316331 -0.35326135 0.3316331 0.07209415 -0.29558602 -0.27395776
0000e0 dd c9 e4 05 1d ec d3 54 c3 42 da 21 ec d7 eb ff
       -0.25232953 -0.39651784 -0.20186362 0.036047075 0.20907304 -0.1441883 -0.32442367 0.6055909 -0.43977433 0.4758214 -0.27395776 0.2379107 -0.1441883 -0.29558602 -0.15139772 -0.007209415
0000f0 f1 13 13 81 f2 fb 0b 2a 2e 0c 42 19 f3 0f 2a c8
       -0.10814123 0.13697888 0.13697888 -0.9155957 -0.10093181 -0.036047075 0.07930356 0.30279544 0.3316331 0.08651298 0.4758214 0.18023537 -0.093722396 0.10814123 0.30279544 -0.40372723

model_5/conv2d_20/Conv2D i1 [19, 3, 3, 17]
000000 13 f7 e5 20 20 d3 2f f5 fe 0d cb 1a 15 d6 f9 36
       19 -9 -27 32 32 -45 47 -11 -2 13 -53 26 21 -42 -7 54
000010 26 e2 ef 2e ee f4 fe 15 3b d2 06 31 19 04 01 ec
       38 -30 -17 46 -18 -12 -2 21 59 -46 6 49 25 4 1 -20
000020 f0 35 11 0f 1e cd 17 fa 2c 3b 3a c5 1c 1d 0e e2
       -16 53 17 15 30 -51 23 -6 44 59 58 -59 28 29 14 -30
000030 25 09 ea d0 fa 1c 01 ee 0c d2 00 ea e4 12 d7 ce
       37 9 -22 -48 -6 28 1 -18 12 -46 0 -22 -28 18 -41 -50
000040 fe 29 29 fc e1 9a 19 23 d5 11 41 34 dc d9 a9 d0
       -2 41 41 -4 -31 -102 25 35 -43 17 65 52 -36 -39 -87 -48
000050 f9 b8 44 7f 21 ff e8 01 08 e1 d6 fa da 13 05 20
       -7 -72 68 127 33 -1 -24 1 8 -31 -42 -6 -38 19 5 32
000060 ce d6 36 e2 31 16 34 09 c7 3a cd e4 e6 39 39 16
       -50 -42 54 -30 49 22 52 9 -57 58 -51 -28 -26 57 57 22
000070 e4 11 23 e4 e5 fc 20 36 cf d2 c6 c9 db d0 ca dc
       -28 17 35 -28 -27 -4 32 54 -49 -46 -58 -55 -37 -48 -54 -36
000080 d4 14 2d ff c9 29 ce e4 0c 35 22 f1 ef ea 1c 19
       -44 20 45 -1 -55 41 -50 -28 12 53 34 -15 -17 -22 28 25
000090 0f 32 fd 07 c8 31 37 c7 08 44 ba e9 4f ab cb 1f
       15 50 -3 7 -56 49 55 -57 8 68 -70 -23 79 -85 -53 31
0000a0 1d e2 36 dd e9 de 36 cc 2f 19 4f 56 42 b0 ec 47
       29 -30 54 -35 -23 -34 54 -52 47 25 79 86 66 -80 -20 71
0000b0 1b 10 f0 fb 31 48 2a 54 da 3c 1e be bb 14 f3 3f
       27 16 -16 -5 49 72 42 84 -38 60 30 -66 -69 20 -13 63
0000c0 bb cc b3 b4 fd 33 f5 b7 d6 d7 f0 c6 14 19 ee e2
       -69 -52 -77 -76 -3 51 -11 -73 -42 -41 -16 -58 20 25 -18 -30
0000d0 20 17 aa ff cf e0 55 39 0a fd f7 08 07 dd 9e f8
       32 23 -86 -1 -49 -32 85 57 10 -3 -9 8 7 -35 -98 -8
0000e0 af e1 d5 17 1b 91 bc b5 ef a7 81 9b cf f9 b8 dc
       -81 -31 -43 23 27 -111 -68 -75 -17 -89 -127 -101 -49 -7 -72 -36
0000f0 b0 1b 1e 3b cf 07 ac d1 39 ac d6 32 f4 f1 27 2f
       -80 27 30 59 -49 7 -84 -47 57 -84 -42 50 -12 -15 39 47

model_5/conv2d_19/Conv2D i1 [17, 3, 3, 15]
000000 0a 44 33 47 1b 32 e8 2e 28 1e 2a 07 23 ef 14 dc
       10 68 51 71 27 50 -24 46 40 30 42 7 35 -17 20 -36
000010 0d ea b9 19 d9 09 f3 21 d0 04 35 25 dd b5 09 3b
       13 -22 -71 25 -39 9 -13 33 -48 4 53 37 -35 -75 9 59
000020 e1 e9 2d f6 53 a9 12 17 11 22 f1 d1 16 26 0d 0a
       -31 -23 45 -10 83 -87 18 23 17 34 -15 -47 22 38 13 10
000030 df ed 05 d3 4d 19 f2 b7 0a 21 20 17 2b 00 e1 8e
       -33 -19 5 -45 77 25 -14 -73 10 33 32 23 43 0 -31 -114
000040 77 ee e4 00 12 0a c2 3d 2d 00 de 22 2a c1 81 f4
       119 -18 -28 0 18 10 -62 61 45 0 -34 34 42 -63 -127 -12
000050 12 f3 17 27 e4 c1 08 e7 cd ec 08 35 f5 27 51 56
       18 -13 23 39 -28 -63 8 -25 -51 -20 8 53 -11 39 81 86
000060 26 ef 32 ca d3 0e 2c eb 05 07 e2 ce bc 5d 20 2c
       38 -17 50 -54 -45 14 44 -21 5 7 -30 -50 -68 93 32 44
000070 d3 0c e1 bd f4 f2 b5 f0 01 ed d2 b1 13 29 36 f4
       -45 12 -31 -67 -12 -14 -75 -16 1 -19 -46 -79 19 41 54 -12
000080 fa ec bf f0 0b e0 1a f7 15 0c 0b 2d 2c d6 2d 04
       -6 -20 -65 -16 11 -32 26 -9 21 12 11 45 44 -42 45 4
000090 d2 f4 50 3e 34 53 0a e0 1e f5 e5 50 df fe 67 c2
       -46 -12 80 62 52 83 10 -32 30 -11 -27 80 -33 -2 103 -62
0000a0 2c 5d 0b dc 16 fb 15 11 e7 d3 f8 cd cd 33 df cb
       44 93 11 -36 22 -5 21 17 -25 -45 -8 -51 -51 51 -33 -53
0000b0 42 24 31 0b 0e 05 de ab bd 1f d5 1f 1d 3a 1d 60
       66 36 49 11 14 5 -34 -85 -67 31 -43 31 29 58 29 96
0000c0 4e f7 13 d8 21 31 dc ae f5 c9 dd bd 47 e6 f6 f5
       78 -9 19 -40 33 49 -36 -82 -11 -55 -35 -67 71 -26 -10 -11
0000d0 eb 2b e4 18 1e d4 ac 1a cd 19 e2 35 df e1 07 df
       -21 43 -28 24 30 -44 -84 26 -51 25 -30 53 -33 -31 7 -33
0000e0 e8 e2 f7 0d e7 ae 1e f3 06 b0 4a 01 18 e0 02 e6
       -24 -30 -9 13 -25 -82 30 -13 6 -80 74 1 24 -32 2 -26
0000f0 d7 05 f1 15 b9 2c 81 f5 cc e7 bd f7 e9 17 ed f5
       -41 5 -15 21 -71 44 -127 -11 -52 -25 -67 -9 -23 23 -19 -11

model_5/conv2d_18/Conv2D i1 [15, 3, 3, 12]
000000 10 e5 e9 0e 09 04 d3 0a 25 f9 44 fd 3f 03 e9 03
       16 -27 -23 14 9 4 -45 10 37 -7 68 -3 63 3 -23 3
000010 22 dd a5 12 e2 cd 3f c2 14 05 e3 2f 43 f4 ba fe
       34 -35 -91 18 -30 -51 63 -62 20 5 -29 47 67 -12 -70 -2
000020 bd fa 0d eb 3a e0 07 db 06 ab e2 03 26 fd 69 1a
       -67 -6 13 -21 58 -32 7 -37 6 -85 -30 3 38 -3 105 26
000030 5f af f6 cc c5 f5 d7 f2 2c 0b 7f 01 42 28 ef dc
       95 -81 -10 -52 -59 -11 -41 -14 44 11 127 1 66 40 -17 -36
000040 09 c5 90 13 f6 d4 70 e1 43 e9 07 19 16 ad 0f f7
       9 -59 -112 19 -10 -44 112 -31 67 -23 7 25 22 -83 15 -9
000050 ea f7 f9 ee 1d ad 22 f5 2b 32 dd d9 30 22 4b 10
       -22 -9 -7 -18 29 -83 34 -11 43 50 -35 -39 48 34 75 16
000060 20 d7 ef f6 19 09 f6 ff 1b 1f 17 f1 fd 27 01 df
       32 -41 -17 -10 25 9 -10 -1 27 31 23 -15 -3 39 1 -33
000070 f6 04 14 e0 c5 d7 08 e7 f6 f5 02 f1 a3 10 f6 e3
       -10 4 20 -32 -59 -41 8 -25 -10 -11 2 -15 -93 16 -10 -29
000080 fa fc ff 14 04 04 07 e4 81 04 f9 d1 f5 03 03 07
       -6 -4 -1 20 4 4 7 -28 -127 4 -7 -47 -11 3 3 7
000090 0f 29 0b 2d 03 08 03 09 fc 01 05 f9 01 0c 22 1c
       15 41 11 45 3 8 3 9 -4 1 5 -7 1 12 34 28
0000a0 1b 22 ed f1 11 fd 0d 17 f9 ee 08 0a f3 1e fe fd
       27 34 -19 -15 17 -3 13 23 -7 -18 8 10 -13 30 -2 -3
0000b0 13 09 0d 02 fd f9 0c 04 f6 04 02 07 0d 0f fa fa
       19 9 13 2 -3 -7 12 4 -10 4 2 7 13 15 -6 -6
0000c0 00 dd 07 0a fa 01 f9 fa 10 08 04 07 fe 0c 06 06
       0 -35 7 10 -6 1 -7 -6 16 8 4 7 -2 12 6 6
0000d0 e0 10 f0 df f4 fa 05 01 ff f0 13 fb e4 fe d9 e8
       -32 16 -16 -33 -12 -6 5 1 -1 -16 19 -5 -28 -2 -39 -24
0000e0 22 0d 02 17 f5 ed 16 e7 dd 0d e4 ea 23 12 08 01
       34 13 2 23 -11 -19 22 -25 -35 13 -28 -22 35 18 8 1
0000f0 04 0b f1 13 0e 09 0b 12 f3 05 02 f4 f1 dd 3c f5
       4 11 -15 19 14 9 11 18 -13 5 2 -12 -15 -35 60 -11

model_5/conv2d_17/Conv2D i1 [12, 3, 3, 8]
000000 05 02 f2 fe 02 0a e0 c4 c7 1d 04 f7 ef 14 d6 18
       5 2 -14 -2 2 10 -32 -60 -57 29 4 -9 -17 20 -42 24
000010 3a 0b 0c 10 f6 f7 35 19 fa b4 f5 ef f0 09 c8 b7
       58 11 12 16 -10 -9 53 25 -6 -76 -11 -17 -16 9 -56 -73
000020 f1 c8 f6 ed f6 11 dc 0f e1 f0 dc 05 0f ec 7c 2d
       -15 -56 -10 -19 -10 17 -36 15 -31 -16 -36 5 15 -20 124 45
000030 02 18 14 1a 13 06 ea 01 05 be 0a f5 f5 ff 8f 86
       2 24 20 26 19 6 -22 1 5 -66 10 -11 -11 -1 -113 -122
000040 03 f0 0c e7 f8 34 81 c4 e2 e8 15 c9 09 06 bf 21
       3 -16 12 -25 -8 52 -127 -60 -30 -24 21 -55 9 6 -65 33
000050 04 ae 21 2b f9 fb 97 0d dc ce 01 14 fa 14 b6 03
       4 -82 33 43 -7 -5 -105 13 -36 -50 1 20 -6 20 -74 3
000060 fc dd 29 eb e0 01 97 15 12 8c 0f 15 04 f8 81 1d
       -4 -35 41 -21 -32 1 -105 21 18 -116 15 21 4 -8 -127 29
000070 01 d7 39 31 fa fd 95 ef 15 fb 0e fc d5 08 dd 15
       1 -41 57 49 -6 -3 -107 -17 21 -5 14 -4 -43 8 -35 21
000080 fe 96 fb fb d8 f9 bd 0b fc b5 01 19 0b ee c2 f0
       -2 -106 -5 -5 -40 -7 -67 11 -4 -75 1 25 11 -18 -62 -16
000090 04 f1 21 e2 00 c8 00 06 d2 ef e8 0a ff cc 15 06
       4 -15 33 -30 0 -56 0 6 -46 -17 -24 10 -1 -52 21 6
0000a0 ce dd ce 42 1a 21 07 f1 06 e6 1b fe 24 c4 01 ff
       -50 -35 -50 66 26 33 7 -15 6 -26 27 -2 36 -60 1 -1
0000b0 e5 a9 2c 2b 64 e2 06 6b c7 b9 1a 27 0b 67 21 09
       -27 -87 44 43 100 -30 6 107 -57 -71 26 39 11 103 33 9
0000c0 fc 01 19 04 16 d8 f9 10 0c cf f6 0d 22 81 07 14
       -4 1 25 4 22 -40 -7 16 12 -49 -10 13 34 -127 7 20
0000d0 09 e3 d9 15 fb f1 0e 15 00 c1 eb ec d8 d6 16 e5
       9 -29 -39 21 -5 -15 14 21 0 -63 -21 -20 -40 -42 22 -27
0000e0 d9 1f f7 ed aa de 1a f9 e1 0c 40 cd 18 d1 05 0d
       -39 31 -9 -19 -86 -34 26 -7 -31 12 64 -51 24 -47 5 13
0000f0 1f d8 11 e6 bf fa 2f 10 0e 11 3a 81 d1 1f 15 fb
       31 -40 17 -26 -65 -6 47 16 14 17 58 -127 -47 31 21 -5

model_5/conv2d_16/Conv2D i1 [8, 3, 3, 4]
000000 e6 17 fb e7 22 0d 02 ec ec 00 de 10 3c 0b d1 2d
       -26 23 -5 -25 34 13 2 -20 -20 0 -34 16 60 11 -47 45
000010 2f 16 c9 92 01 f6 06 f6 4a 0c 2d 7f 26 10 1a 0d
       47 22 -55 -110 1 -10 6 -10 74 12 45 127 38 16 26 13
000020 f4 04 d4 c1 f4 ea 16 96 1f 04 07 df 04 fe e3 17
       -12 4 -44 -63 -12 -22 22 -106 31 4 7 -33 4 -2 -29 23
000030 f5 d5 c2 21 83 d4 7f 4a 46 f9 bd 03 0b fd 56 22
       -11 -43 -62 33 -125 -44 127 74 70 -7 -67 3 11 -3 86 34
000040 d9 ed 69 04 29 f9 e6 fd f8 3e d1 04 de e5 b0 32
       -39 -19 105 4 41 -7 -26 -3 -8 62 -47 4 -34 -27 -80 50
000050 14 f0 fc ec e9 f3 ae 0d d3 81 ba 0f 1b 1a 3f d6
       20 -16 -4 -20 -23 -13 -82 13 -45 -127 -70 15 27 26 63 -42
000060 04 db f2 f5 0e eb 25 ec 21 3a fe 11 fb 12 01 d9
       4 -37 -14 -11 14 -21 37 -20 33 58 -2 17 -5 18 1 -39
000070 da ba ea 22 fa eb f7 0c ee 7f e9 d1 52 e1 e6 15
       -38 -70 -22 34 -6 -21 -9 12 -18 127 -23 -47 82 -31 -26 21
000080 db eb 05 e2 c9 66 ca f2 11 f8 bf 17 fa f2 ff 02
       -37 -21 5 -30 -55 102 -54 -14 17 -8 -65 23 -6 -14 -1 2
000090 1c e1 17 02 05 2f 30 14 81 29 fb ff 07 fe 22 f1
       28 -31 23 2 5 47 48 20 -127 41 -5 -1 7 -2 34 -15
0000a0 0a e8 d7 13 eb 10 09 fc 10 01 0d f9 18 f9 00 03
       10 -24 -41 19 -21 16 9 -4 16 1 13 -7 24 -7 0 3
0000b0 07 f2 0a 07 e1 05 b4 3f d0 18 0c fa 1a 1a ff eb
       7 -14 10 7 -31 5 -76 63 -48 24 12 -6 26 26 -1 -21
0000c0 8c 81 9c 02 9f f7 f9 17 0f 15 05 00 0a 0d e7 f6
       -116 -127 -100 2 -97 -9 -7 23 15 21 5 0 10 13 -25 -10
0000d0 e9 dc fe fe 11 fc fe 03 0c ff d7 01 cd 07 cf 7f
       -23 -36 -2 -2 17 -4 -2 3 12 -1 -41 1 -51 7 -49 127
0000e0 f7 00 03 d7 01 fe 06 f1 06 f2 07 eb 13 ff 0f d0
       -9 0 3 -41 1 -2 6 -15 6 -14 7 -21 19 -1 15 -48
0000f0 fe 00 06 02 04 03 fa f2 fc 04 ff f1 01 09 05 c7
       -2 0 6 2 4 3 -6 -14 -4 4 -1 -15 1 9 5 -57

model_5/conv2d_15/Conv2D i1 [4, 3, 3, 3]
000000 40 81 60 1a cc 19 15 2f 9d f0 d9 4d 9e 33 5d 0d
       64 -127 96 26 -52 25 21 47 -99 -16 -39 77 -98 51 93 13
000010 f6 ea a7 75 df e0 14 28 38 e1 e1 db df 4f f8 c4
       -10 -22 -89 117 -33 -32 20 40 56 -31 -31 -37 -33 79 -8 -60
000020 40 27 db 1e 09 ba 27 c9 fc 0e d1 f9 0d 25 ea fc
       64 39 -37 30 9 -70 39 -55 -4 14 -47 -7 13 37 -22 -4
000030 fb dc f7 7f d0 0a ed 1e fb df 3d e3 0e c0 4c 0a
       -5 -36 -9 127 -48 10 -19 30 -5 -33 61 -29 14 -64 76 10
000040 e4 1b 7f 9c 92 13 be 3f ee 19 fc f4 1a ed e3 5f
       -28 27 127 -100 -110 19 -66 63 -18 25 -4 -12 26 -19 -29 95
000050 a7 eb 15 f6 ed 0f f9 e7 16 fd 02 f9 09 3a c8 12
       -89 -21 21 -10 -19 15 -7 -25 22 -3 2 -7 9 58 -56 18
000060 0e dc 1d 11 df 19 75 81 2c 31 bd 23
       14 -36 29 17 -33 25 117 -127 44 49 -67 35
