models/resulting_architecture_k_8_c_5.tflite (tflite, 45984 bytes, 8 tensors)

model_11/dense_23/MatMul i1 [2, 37] scale=0.003909395 zero_point=0
000000 f3 1a ed c6 e3 2b f0 08 55 48 ef 4d 06 1a f9 32
       -0.050822135 0.10164427 -0.0742785 -0.22674492 -0.11337246 0.168104 -0.06255032 0.03127516 0.33229858 0.28147644 -0.066459715 0.30102342 0.02345637 0.10164427 -0.027365766 0.19546975
000010 48 a3 f6 e0 0e c3 f3 c6 b8 ab 32 36 bc 01 2a 0a
       0.28147644 -0.36357373 -0.03909395 -0.12510064 0.054731533 -0.2384731 -0.050822135 -0.22674492 -0.28147644 -0.33229858 0.19546975 0.21110733 -0.26583886 0.003909395 0.1641946 0.03909395
000020 30 dd e3 3b 05 3c 17 04 26 d8 ce 0c 2d ca e4 fb
       0.18765096 -0.13682882 -0.11337246 0.23065431 0.019546974 0.23456371 0.08991609 0.01563758 0.148557 -0.1563758 -0.19546975 0.04691274 0.17592278 -0.21110733 -0.109463066 -0.019546974
000030 ea 15 20 c1 40 59 bb 0c da 32 13 0b 00 c3 10 16
       -0.08600669 0.0820973 0.12510064 -0.24629189 0.25020128 0.34793615 -0.26974827 0.04691274 -0.148557 0.19546975 0.0742785 0.043003347 0.0 -0.2384731 0.06255032 0.08600669
000040 de cd 4c 7f ea f9 e1 e5 43 06
       -0.13291943 -0.19937915 0.297114 0.49649316 -0.08600669 -0.027365766 -0.12119125 -0.105553664 0.26192948 0.02345637

model_11/dense_22/MatMul i1 [37, 37] scale=0.0061848494 zero_point=0
000000 1a 01 1c 0c 0e 1d f3 1b f8 25 de d4 22 29 e2 08
       0.16080609 0.0061848494 0.17317578 0.07421819 0.08658789 0.17936063 -0.080403045 0.16699094 -0.049478795 0.22883943 -0.21028487 -0.27213338 0.21028487 0.2535788 -0.18554549 0.049478795
000010 d6 26 cf d6 e9 fd 10 d3 fa 07 0d 13 09 f2 2e d9
       -0.2597637 0.23502427 -0.3030576 -0.2597637 -0.14225154 -0.018554548 0.09895759 -0.27831823 -0.037109096 0.043293945 0.080403045 0.11751214 0.055663645 -0.08658789 0.28450307 -0.24120913
000020 cd 33 fc 18 19 e0 0d 03 b4 0e 00 d7 f5 f8 f5 bb
       -0.31542733 0.31542733 -0.024739398 0.14843638 0.15462123 -0.19791518 0.080403045 0.018554548 -0.47004855 0.08658789 0.0 -0.2535788 -0.068033345 -0.049478795 -0.068033345 -0.42675462
000030 fc 0c f4 33 da 0d b3 ea 14 ee 2b f4 e3 03 ea e6
       -0.024739398 0.07421819 -0.07421819 0.31542733 -0.23502427 0.080403045 -0.4762334 -0.13606669 0.12369699 -0.11132729 0.26594853 -0.07421819 -0.17936063 0.018554548 -0.13606669 -0.16080609
000040 c9 e2 f1 ef fd 26 de 04 12 23 d4 0e f4 ff 13 11
       -0.34016672 -0.18554549 -0.092772745 -0.10514244 -0.018554548 0.23502427 -0.21028487 0.024739398 0.11132729 0.21646973 -0.27213338 0.08658789 -0.07421819 -0.0061848494 0.11751214 0.10514244
000050 19 fc b4 34 1e fc f9 06 93 d8 c9 ff fb d6 b6 30
       0.15462123 -0.024739398 -0.47004855 0.32161218 0.18554549 -0.024739398 -0.043293945 0.037109096 -0.67414856 -0.24739398 -0.34016672 -0.0061848494 -0.030924248 -0.2597637 -0.45767885 0.29687276
000060 04 be ff 12 e4 02 d7 18 24 fc d2 17 e1 15 ce d5
       0.024739398 -0.40820006 -0.0061848494 0.11132729 -0.17317578 0.012369699 -0.2535788 0.14843638 0.22265458 -0.024739398 -0.28450307 0.14225154 -0.19173034 0.12988184 -0.30924246 -0.26594853
000070 d3 d8 ce 25 d7 03 fa 26 dd f0 fa 1b fd d8 27 d0
       -0.27831823 -0.24739398 -0.30924246 0.22883943 -0.2535788 0.018554548 -0.037109096 0.23502427 -0.21646973 -0.09895759 -0.037109096 0.16699094 -0.018554548 -0.24739398 0.24120913 -0.29687276
000080 2e e9 e4 00 f9 e1 df d4 fe eb fb e9 1b ea 09 09
       0.28450307 -0.14225154 -0.17317578 0.0 -0.043293945 -0.19173034 -0.20410003 -0.27213338 -0.012369699 -0.12988184 -0.030924248 -0.14225154 0.16699094 -0.13606669 0.055663645 0.055663645
000090 da 04 f5 f1 00 fc e8 f9 07 12 ea fd 14 ef e6 0b
       -0.23502427 0.024739398 -0.068033345 -0.092772745 0.0 -0.024739398 -0.14843638 -0.043293945 0.043293945 0.11132729 -0.13606669 -0.018554548 0.12369699 -0.10514244 -0.16080609 0.068033345
0000a0 2d d8 20 fb e6 bb f1 e6 dd 08 ed 02 21 f8 2b ea
       0.27831823 -0.24739398 0.19791518 -0.030924248 -0.16080609 -0.42675462 -0.092772745 -0.16080609 -0.21646973 0.049478795 -0.11751214 0.012369699 0.20410003 -0.049478795 0.26594853 -0.13606669
0000b0 ea d8 f2 16 d2 e5 17 e2 10 d4 c6 0e 15 2b dd 23
       -0.13606669 -0.24739398 -0.08658789 0.13606669 -0.28450307 -0.16699094 0.14225154 -0.18554549 0.09895759 -0.27213338 -0.35872126 0.08658789 0.12988184 0.26594853 -0.21646973 0.21646973
0000c0 f3 fb e4 f0 d4 33 1f 17 12 e6 e2 fd fc d1 ef 01
       -0.080403045 -0.030924248 -0.17317578 -0.09895759 -0.27213338 0.31542733 0.19173034 0.14225154 0.11132729 -0.16080609 -0.18554549 -0.018554548 -0.024739398 -0.29068792 -0.10514244 0.0061848494
0000d0 f7 fe e0 e7 fb d3 15 cd 11 ef fe fb fe ee be 1d
       -0.055663645 -0.012369699 -0.19791518 -0.15462123 -0.030924248 -0.27831823 0.12988184 -0.31542733 0.10514244 -0.10514244 -0.012369699 -0.030924248 -0.012369699 -0.11132729 -0.40820006 0.17936063
0000e0 07 13 21 d8 11 12 29 1a 1d 1b f7 fe 2d 05 d2 f5
       0.043293945 0.11751214 0.20410003 -0.24739398 0.10514244 0.11132729 0.2535788 0.16080609 0.17936063 0.16699094 -0.055663645 -0.012369699 0.27831823 0.030924248 -0.28450307 -0.068033345
0000f0 e3 12 ef 02 c4 d8 e9 ed 13 fe d1 e3 1d ea 17 20
       -0.17936063 0.11132729 -0.10514244 0.012369699 -0.37109098 -0.24739398 -0.14225154 -0.11751214 0.11751214 -0.012369699 -0.29068792 -0.17936063 0.17936063 -0.13606669 0.14225154 0.19791518

model_11/conv2d_41/Conv2D i1 [37, 3, 3, 34]
000000 05 09 ed 0e f5 12 fc 0c 01 f9 0c 13 f2 04 f2 fb
       5 9 -19 14 -11 18 -4 12 1 -7 12 19 -14 4 -14 -5
000010 fa 06 ef ed f0 f0 03 05 ed fe 0e 00 fe f9 12 f3
       -6 6 -17 -19 -16 -16 3 5 -19 -2 14 0 -2 -7 18 -13
000020 ef 12 03 05 03 07 08 05 f2 fb 0e 01 05 ff f0 fc
       -17 18 3 5 3 7 8 5 -14 -5 14 1 5 -1 -16 -4
000030 ef f4 0c f1 fd 0a 09 ed 0c ed f5 f3 f6 12 09 fd
       -17 -12 12 -15 -3 10 9 -19 12 -19 -11 -13 -10 18 9 -3
000040 02 f4 f8 03 0f fb f0 f5 11 fc f8 11 02 03 f9 12
       2 -12 -8 3 15 -5 -16 -11 17 -4 -8 17 2 3 -7 18
000050 0e 01 f7 f5 ed 0e f6 0f 11 0e 0f f4 02 fc 0c fc
       14 1 -9 -11 -19 14 -10 15 17 14 15 -12 2 -4 12 -4
000060 fb 10 f4 ee 0a 0e f5 fd 07 01 10 ef fb 07 0a ee
       -5 16 -12 -18 10 14 -11 -3 7 1 16 -17 -5 7 10 -18
000070 09 0e 03 ff 0c 07 0c f0 03 f6 03 fa f3 09 fd 01
       9 14 3 -1 12 7 12 -16 3 -10 3 -6 -13 9 -3 1
000080 f6 ed 09 13 f1 00 fd 13 29 d9 da 7f e8 0f 25 d0
       -10 -19 9 19 -15 0 -3 19 41 -39 -38 127 -24 15 37 -48
000090 e0 0b 32 da e4 2f d6 28 24 34 d4 e8 d4 01 2e f1
       -32 11 50 -38 -28 47 -42 40 36 52 -44 -24 -44 1 46 -15
0000a0 11 cc 19 2b 18 c7 f0 e7 e5 03 fb fd 0e 02 f8 00
       17 -52 25 43 24 -57 -16 -25 -27 3 -5 -3 14 2 -8 0
0000b0 0f 12 ef f4 0a ff fd 0a fa f7 11 ef 03 f0 05 f6
       15 18 -17 -12 10 -1 -3 10 -6 -9 17 -17 3 -16 5 -10
0000c0 f9 13 00 ed 13 13 01 05 ed 0b ef 0c f4 03 fb f3
       -7 19 0 -19 19 19 1 5 -19 11 -17 12 -12 3 -5 -13
0000d0 07 0d fa 0c f7 0a ff 0c 03 07 0e ef 11 06 09 ee
       7 13 -6 12 -9 10 -1 12 3 7 14 -17 17 6 9 -18
0000e0 fc f4 f8 fc fc 02 fe 08 ff ff f7 12 fd 06 0f ed
       -4 -12 -8 -4 -4 2 -2 8 -1 -1 -9 18 -3 6 15 -19
0000f0 08 0f ef 04 0f 05 f7 ff 02 fb 06 07 f6 f7 fa 03
       8 15 -17 4 15 5 -9 -1 2 -5 6 7 -10 -9 -6 3

model_11/conv2d_40/Conv2D i1 [34, 3, 3, 30]
000000 1c f9 d8 0c 1a 27 03 1f 36 06 0c 1c fa 1c 9f be
       28 -7 -40 12 26 39 3 31 54 6 12 28 -6 28 -97 -66
000010 ef e7 3c 11 25 0f 0d 16 f4 fd 1d 03 e6 1c 2a 02
       -17 -25 60 17 37 15 13 22 -12 -3 29 3 -26 28 42 2
000020 13 f9 18 10 0f 30 d0 e1 d5 00 05 1a d6 dd 12 1d
       19 -7 24 16 15 48 -48 -31 -43 0 5 26 -42 -35 18 29
000030 34 16 fc 0f fe 39 ed 1c 0a 30 fb 03 2a 8e d6 f8
       52 22 -4 15 -2 57 -19 28 10 48 -5 3 42 -114 -42 -8
000040 4a 0c 13 ec f2 05 81 ea d4 06 b3 13 12 23 34 d6
       74 12 19 -20 -14 5 -127 -22 -44 6 -77 19 18 35 52 -42
000050 e1 21 12 f3 05 e5 1c 0d ee 04 13 28 06 e8 05 0d
       -31 33 18 -13 5 -27 28 13 -18 4 19 40 6 -24 5 13
000060 0b 0f 14 00 04 1d f4 19 19 c9 1c fe f2 15 0d 1d
       11 15 20 0 4 29 -12 25 25 -55 28 -2 -14 21 13 29
000070 fa f1 29 f4 19 27 e6 2a fd d8 f7 eb e6 fe ea 16
       -6 -15 41 -12 25 39 -26 42 -3 -40 -9 -21 -26 -2 -22 22
000080 e1 f7 f8 0e f6 05 ef a8 06 d8 df 2a 09 da ef 13
       -31 -9 -8 14 -10 5 -17 -88 6 -40 -33 42 9 -38 -17 19
000090 f2 00 22 ff 27 19 0c ee 08 d8 2c ff cf 01 f9 d6
       -14 0 34 -1 39 25 12 -18 8 -40 44 -1 -49 1 -7 -42
0000a0 01 28 ed 02 d4 e2 1e f4 e2 ef b6 25 1f 11 e0 d5
       1 40 -19 2 -44 -30 30 -12 -30 -17 -74 37 31 17 -32 -43
0000b0 16 2c 32 13 1e 11 0d e7 07 00 16 fd 0d 14 ef 42
       22 44 50 19 30 17 13 -25 7 0 22 -3 13 20 -17 66
0000c0 18 04 1a 21 23 e0 c0 08 f0 1b 0c 3a 19 da 04 1a
       24 4 26 33 35 -32 -64 8 -16 27 12 58 25 -38 4 26
0000d0 fc 15 15 07 06 dc f0 01 f2 e8 0f e3 08 25 0d ef
       -4 21 21 7 6 -36 -16 1 -14 -24 15 -29 8 37 13 -17
0000e0 ee d7 2f aa 94 14 e0 d5 dd 24 18 fa 20 21 11 1b
       -18 -41 47 -86 -108 20 -32 -43 -35 36 24 -6 32 33 17 27
0000f0 10 18 25 a8 ed 14 a9 db 01 d7 08 05 e9 fb 27 13
       16 24 37 -88 -19 20 -87 -37 1 -41 8 5 -23 -5 39 19

model_11/conv2d_39/Conv2D i1 [30, 3, 3, 24]
000000 13 4a 4a c0 30 dd e9 36 01 04 11 ff 0e 13 08 38
       19 74 74 -64 48 -35 -23 54 1 4 17 -1 14 19 8 56
000010 f3 36 13 cf 56 27 14 08 11 01 32 23 de 1c df 4a
       -13 54 19 -49 86 39 20 8 17 1 50 35 -34 28 -33 74
000020 e5 11 e3 2e 13 de e4 da 04 19 26 ec 23 1d 1f e9
       -27 17 -29 46 19 -34 -28 -38 4 25 38 -20 35 29 31 -23
000030 05 15 4f 13 0a cb d2 17 af 23 f7 01 df 1c f9 13
       5 21 79 19 10 -53 -46 23 -81 35 -9 1 -33 28 -7 19
000040 f6 3c 14 ef f8 fc 22 ef 22 e5 02 da 2d 1f de 25
       -10 60 20 -17 -8 -4 34 -17 34 -27 2 -38 45 31 -34 37
000050 cf 18 a1 0c e1 d4 cc 2a 05 05 42 e1 20 0e cd b4
       -49 24 -95 12 -31 -44 -52 42 5 5 66 -31 32 14 -51 -76
000060 fa f2 f3 01 4a 1f f8 0b e6 fb ae b5 cd f0 fd 14
       -6 -14 -13 1 74 31 -8 11 -26 -5 -82 -75 -51 -16 -3 20
000070 23 eb 26 ef f7 18 dc 0b f8 b2 1f 31 2d e6 08 d6
       35 -21 38 -17 -9 24 -36 11 -8 -78 31 49 45 -26 8 -42
000080 d1 17 f3 f9 05 d8 e6 36 08 18 45 ef 12 fe 03 f4
       -47 23 -13 -7 5 -40 -26 54 8 24 69 -17 18 -2 3 -12
000090 1f d8 42 d4 55 ef 1d 1b 2d 3d 0f ef f9 c0 e6 21
       31 -40 66 -44 85 -17 29 27 45 61 15 -17 -7 -64 -26 33
0000a0 ff 20 59 03 bc bf a2 a5 fc f2 17 03 43 d9 9f b8
       -1 32 89 3 -68 -65 -94 -91 -4 -14 23 3 67 -39 -97 -72
0000b0 d1 f9 c7 d6 1e aa f6 29 f1 ba 3a 07 de c5 c9 93
       -47 -7 -57 -42 30 -86 -10 41 -15 -70 58 7 -34 -59 -55 -109
0000c0 ff f9 36 7f 2d fc e3 17 e2 04 1a c4 f9 bf 25 0c
       -1 -7 54 127 45 -4 -29 23 -30 4 26 -60 -7 -65 37 12
0000d0 e6 c4 32 10 99 fc 07 e8 c6 5b 29 81 04 eb 00 0a
       -26 -60 50 16 -103 -4 7 -24 -58 91 41 -127 4 -21 0 10
0000e0 01 14 d9 0c c8 e5 f9 dc ed 09 51 fd f8 dd 09 f8
       1 20 -39 12 -56 -27 -7 -36 -19 9 81 -3 -8 -35 9 -8
0000f0 f6 12 4d e4 1c 3e c3 d6 dd df b4 fe c4 d2 c5 de
       -10 18 77 -28 28 62 -61 -42 -35 -33 -76 -2 -60 -46 -59 -34

model_11/conv2d_38/Conv2D i1 [24, 3, 3, 16]
000000 dd 04 d5 00 0d fa f8 05 13 06 d0 cc f8 1c f4 0c
       -35 4 -43 0 13 -6 -8 5 19 6 -48 -52 -8 28 -12 12
000010 ed b0 f0 f9 f6 0e 0a 12 13 08 e0 c9 05 16 3b 14
       -19 -80 -16 -7 -10 14 10 18 19 8 -32 -55 5 22 59 20
000020 fc d0 e8 00 14 31 20 32 1f fe c7 b9 07 09 04 23
       -4 -48 -24 0 20 49 32 50 31 -2 -57 -71 7 9 4 35
000030 f7 f7 c6 25 dd 07 ee e5 02 fa e5 d4 f1 21 08 21
       -9 -9 -58 37 -35 7 -18 -27 2 -6 -27 -44 -15 33 8 33
000040 0d 81 e9 16 dc f4 0f 0d f9 de f1 b1 e2 1a 2a 0e
       13 -127 -23 22 -36 -12 15 13 -7 -34 -15 -79 -30 26 42 14
000050 0d 8e f9 0a 03 fb 15 02 ed cf f6 b2 04 07 f9 0e
       13 -114 -7 10 3 -5 21 2 -19 -49 -10 -78 4 7 -7 14
000060 d9 08 c8 10 ea d7 f0 f5 d1 d8 be df f4 21 0d fc
       -39 8 -56 16 -22 -41 -16 -11 -47 -40 -66 -33 -12 33 13 -4
000070 05 b0 ee 09 d4 f1 1d f4 e6 ca fc ee ed 11 0c 10
       5 -80 -18 9 -44 -15 29 -12 -26 -54 -4 -18 -19 17 12 16
000080 0b b4 f7 0e 0e cd 01 f8 04 d0 f7 e5 fe 12 24 0c
       11 -76 -9 14 14 -51 1 -8 4 -48 -9 -27 -2 18 36 12
000090 e1 06 1c fa f7 d7 ec f0 fe 31 f9 01 00 ff ff f6
       -31 6 28 -6 -9 -41 -20 -16 -2 49 -7 1 0 -1 -1 -10
0000a0 db ec 17 33 e6 0e 4c 18 05 ec ef 05 22 02 f3 25
       -37 -20 23 51 -26 14 76 24 5 -20 -17 5 34 2 -13 37
0000b0 dd 0b fe 39 f4 fd f8 12 1a 00 f6 fd f5 fe f2 0f
       -35 11 -2 57 -12 -3 -8 18 26 0 -10 -3 -11 -2 -14 15
0000c0 d0 e2 07 13 f6 14 11 04 f7 1b fe 04 f7 fa ec fe
       -48 -30 7 19 -10 20 17 4 -9 27 -2 4 -9 -6 -20 -2
0000d0 81 b0 21 e0 f2 2f 0a 09 cc 25 eb 36 f4 f5 e4 f9
       -127 -80 33 -32 -14 47 10 9 -52 37 -21 54 -12 -11 -28 -7
0000e0 ea f7 02 eb f1 f6 f9 17 06 e6 01 05 fc fe ef 10
       -22 -9 2 -21 -15 -10 -7 23 6 -26 1 5 -4 -2 -17 16
0000f0 d3 09 02 0e 12 e2 07 e7 12 02 ff f1 f1 0a ee fc
       -45 9 2 14 18 -30 7 -25 18 2 -1 -15 -15 10 -18 -4

model_11/conv2d_37/Conv2D i1 [16, 3, 3, 8]
000000 37 06 0e 1f 97 0a bc f6 e8 00 d4 14 98 ee be 09
       55 6 14 31 -105 10 -68 -10 -24 0 -44 20 -104 -18 -66 9
000010 d4 00 c8 f4 a4 81 eb 30 eb 14 0b 1c af f6 9d 1b
       -44 0 -56 -12 -92 -127 -21 48 -21 20 11 28 -81 -10 -99 27
000020 d8 16 ff 08 b2 cd 9c 32 05 08 3a 06 ca ce 1a 2d
       -40 22 -1 8 -78 -51 -100 50 5 8 58 6 -54 -50 26 45
000030 11 1e 08 e6 e5 fd b2 11 0f 20 1b f1 da 04 c5 0f
       17 30 8 -26 -27 -3 -78 17 15 32 27 -15 -38 4 -59 15
000040 3f 04 0f e9 fe 2b 08 23 4a e2 05 e8 01 16 2c 47
       63 4 15 -23 -2 43 8 35 74 -30 5 -24 1 22 44 71
000050 6a e6 5c f0 64 50 69 10 c9 fa 22 e5 d8 e4 07 f3
       106 -26 92 -16 100 80 105 16 -55 -6 34 -27 -40 -28 7 -13
000060 2c e9 19 e6 f0 00 d9 3f f7 ef 7f ed 4b 79 09 15
       44 -23 25 -26 -16 0 -39 63 -9 -17 127 -19 75 121 9 21
000070 c7 f9 20 fa 17 25 11 0b d3 ff 21 fb d1 d9 f3 01
       -57 -7 32 -6 23 37 17 11 -45 -1 33 -5 -47 -39 -13 1
000080 ea fe 02 f6 e3 cf f5 e9 e6 ed 10 04 db e3 f5 e2
       -22 -2 2 -10 -29 -49 -11 -23 -26 -19 16 4 -37 -29 -11 -30
000090 04 01 1b f4 e7 14 f0 1a c4 fb f4 fd 0a 0e 17 e6
       4 1 27 -12 -25 20 -16 26 -60 -5 -12 -3 10 14 23 -26
0000a0 dc fb cd 05 12 eb 0b e9 50 00 35 f7 f6 02 cb 15
       -36 -5 -51 5 18 -21 11 -23 80 0 53 -9 -10 2 -53 21
0000b0 1c 07 3b f7 d8 17 0c 11 a0 f4 86 05 1e e6 10 d4
       28 7 59 -9 -40 23 12 17 -96 -12 -122 5 30 -26 16 -44
0000c0 33 ff fb fa f9 f4 f1 0e 4a 02 24 fa de 18 f1 1a
       51 -1 -5 -6 -7 -12 -15 14 74 2 36 -6 -34 24 -15 26
0000d0 81 ff ac 05 25 e2 0c d0 03 fa 22 c6 fc f7 05 ec
       -127 -1 -84 5 37 -30 12 -48 3 -6 34 -58 -4 -9 5 -20
0000e0 fa 06 a9 d3 ef f8 04 02 0d f7 f1 f9 1b ff fe 1c
       -6 6 -87 -45 -17 -8 4 2 13 -9 -15 -7 27 -1 -2 28
0000f0 fc 81 f1 d0 af d0 fa db ef ab e6 e2 a6 cd 04 f2
       -4 -127 -15 -48 -81 -48 -6 -37 -17 -85 -26 -30 -90 -51 4 -14

model_11/conv2d_36/Conv2D i1 [8, 3, 3, 3]
000000 0b 1a c3 da f7 46 e6 04 1f da 0b 23 c8 e4 7f 0b
       11 26 -61 -38 -9 70 -26 4 31 -38 11 35 -56 -28 127 11
000010 ea 10 4b d1 d9 1d 99 68 18 e4 0f 1d ff ff 6a fb
       -22 16 75 -47 -39 29 -103 104 24 -28 15 29 -1 -1 106 -5
000020 d6 34 1b d8 d8 fd fe 81 bf 25 e8 23 fc f4 f7 0d
       -42 52 27 -40 -40 -3 -2 -127 -65 37 -24 35 -4 -12 -9 13
000030 f4 ef 33 1d 10 ec 1f c2 2e 16 08 d1 28 00 af 70
       -12 -17 51 29 16 -20 31 -62 46 22 8 -47 40 0 -81 112
000040 81 00 b2 23 60 d1 18 1f 14 e8 0d 0b e1 1c f2 fe
       -127 0 -78 35 96 -47 24 31 20 -24 13 11 -31 28 -14 -2
000050 1b ed 19 f6 d9 21 e9 f4 0d f3 f3 0d ef 0e e7 17
       27 -19 25 -10 -39 33 -23 -12 13 -13 -13 13 -17 14 -25 23
000060 d2 0b e2 2c cc 20 7f dc 44 d0 00 f2 39 bc 1e 17
       -46 11 -30 44 -52 32 127 -36 68 -48 0 -14 57 -68 30 23
000070 e9 ff ea 1b f6 7f 89 05 65 93 20 01 fc 02 33 bf
       -23 -1 -22 27 -10 127 -119 5 101 -109 32 1 -4 2 51 -65
000080 18 47 ad 17 f3 ff 0e 12 c4 0a bf 13 3b db 32 ec
       24 71 -83 23 -13 -1 14 18 -60 10 -65 19 59 -37 50 -20
000090 28 81 48 5b 85 0a 25 eb f2 d4 0a 0d 14 cd 19 3b
       40 -127 72 91 -123 10 37 -21 -14 -44 10 13 20 -51 25 59
0000a0 cb 22 f9 0e ed fd 10 ec f6 1b ee 28 e5 d7 e8 2d
       -53 34 -7 14 -19 -3 16 -20 -10 27 -18 40 -27 -41 -24 45
0000b0 e1 f5 16 ea d7 3a f4 0b 40 81 2c cf f6 01 22 cd
       -31 -11 22 -22 -41 58 -12 11 64 -127 44 -49 -10 1 34 -51
0000c0 c6 22 26 54 be e3 b9 5f dc fc b8 76 34 98 5a ea
       -58 34 38 84 -66 -29 -71 95 -36 -4 -72 118 52 -104 90 -22
0000d0 78 81 e5 56 d6 fa a9 75
       120 -127 -27 86 -42 -6 -87 117
