models/resulting_architecture_k_2_c_3.tflite (tflite, 8216 bytes, 6 tensors)

model_6/dense_13/MatMul i1 [2, 8] scale=0.0074042133 zero_point=0
-0.37021068 -0.47386965 0.7700382 0.903314 -0.8218677 -0.5997413 -0.3998275 0.9403351
0.014808427 0.56272024 -0.31097695 0.24433903 0.4442528 0.5997413 0.57012445 -0.3924233
00000000: cec0 687a 91af ca7f 024c d621 3c51 4dcb

model_6/dense_12/MatMul i1 [8, 8] scale=0.009466423 zero_point=0
-0.63425034 0.07573138 -0.4638547 -0.32185838 -0.53958607 -0.42598903 0.07573138 -0.54905254
0.09466423 -0.028399268 -0.36919048 0.30292553 0.918243 -0.58691823 -0.018932845 -0.47332114
-1.1549035 0.22719415 -0.246127 0.58691823 -0.43545544 0.14199634 -0.97504157 0.10413065
-0.056798536 -0.09466423 1.0602393 0.32185838 0.11359707 1.1833029 -1.0697057 0.9655751
0.71944815 -0.54905254 -0.25559342 0.35025764 0.0 -0.30292553 0.9087766 -0.6247839
-0.35025764 -0.69104886 -0.37865692 -0.43545544 -1.2022357 0.4165226 0.64371675 0.15146276
0.8614445 -0.07573138 -0.009466423 0.32185838 -0.246127 -0.67211604 0.4165226 -0.09466423
0.7099817 -0.17039561 0.07573138 -0.7478474 0.31239194 -0.028399268 0.59638464 -0.37865692
00000000: bd08 cfde c7d3 08c6 0afd d920 61c2 fece
00000010: 8618 e63e d20f 990b faf6 7022 0c7d 8f66
00000020: 4cc6 e525 00e0 60be dbb7 d8d2 812c 4410
00000030: 5bf8 ff22 e6b9 2cf6 4bee 08b1 21fd 3fd8

model_6/conv2d_13/Conv2D i1 [8, 3, 3, 6]
-65 108 9 79 -12 -86 -23 43
-82 -8 -70 -50 -107 29 14 89
-22 -82 -54 62 -9 -18 -74 -23
-108 -41 -96 -77 -71 -54 -60 12
23 73 -127 -89 -20 61 23 33
6 -80 -40 85 44 24 -29 -45
15 116 36 125 -121 -9 41 -24
72 22 76 41 3 -29 102 -17
-23 -30 66 -25 -21 -18 17 -31
-68 -32 -38 14 56 37 -13 -17
44 64 84 -66 -55 -12 -14 -10
120 -2 -2 -78 -39 -4 47 127
-19 -2 -26 43 7 46 22 -98
-14 8 102 -8 56 24 -109 -26
37 30 -1 4 -96 70 -26 -18
51 36 -86 -1 10 26 25 -21
-112 8 -76 20 -41 10 -117 51
-78 -15 -24 30 -108 60 15 40
15 -43 -67 11 -58 61 -69 9
-100 48 -2 -13 -53 1 -127 43
100 41 22 5 -11 -43 4 53
20 3 11 -42 49 43 23 -24
2 -39 52 24 -11 18 2 -27
-17 67 18 27 10 -7 28 93
-23 14 17 -20 65 31 -52 -16
-54 -98 58 21 8 8 -103 -70
66 60 -18 -24 -30 -69 127 -12
-117 49 9 24 -8 18 -121 14
-39 -14 -17 42 -98 55 26 10
-48 -58 -24 8 -7 -16 -18 44
-113 19 -1 -17 -27 27 -127 -5
-23 -8 -21 18 -39 34 -3 -26
00000000: bf6c 094f f4aa e92b aef8 bace 951d 0e59
00000010: eaae ca3e f7ee b6e9 94d7 a0b3 b9ca c40c
00000020: 1749 81a7 ec3d 1721 06b0 d855 2c18 e3d3
00000030: 0f74 247d 87f7 29e8 4816 4c29 03e3 66ef
00000040: e9e2 42e7 ebee 11e1 bce0 da0e 3825 f3ef
00000050: 2c40 54be c9f4 f2f6 78fe feb2 d9fc 2f7f
00000060: edfe e62b 072e 169e f208 66f8 3818 93e6
00000070: 251e ff04 a046 e6ee 3324 aaff 0a1a 19eb
00000080: 9008 b414 d70a 8b33 b2f1 e81e 943c 0f28
00000090: 0fd5 bd0b c63d bb09 9c30 fef3 cb01 812b
000000a0: 6429 1605 f5d5 0435 1403 0bd6 312b 17e8
000000b0: 02d9 3418 f512 02e5 ef43 121b 0af9 1c5d
000000c0: e90e 11ec 411f ccf0 ca9e 3a15 0808 99ba
000000d0: 423c eee8 e2bb 7ff4 8b31 0918 f812 870e
000000e0: d9f2 ef2a 9e37 1a0a d0c6 e808 f9f0 ee2c
000000f0: 8f13 ffef e51b 81fb e9f8 eb12 d922 fde6

model_6/conv2d_12/Conv2D i1 [6, 3, 3, 4]
1 -73 8 4 3 -127 4 1
4 -73 -2 2 3 -45 1 3
16 -56 -10 4 20 -74 -3 -19
11 -20 -1 20 21 -40 -17 16
18 -41 2 -9 28 -68 80 -23
-53 -32 -9 -85 -26 -19 -22 -26
121 -13 58 -68 -45 14 -10 -80
79 -58 10 -8 -19 -98 -3 53
-89 -69 -41 28 127 -55 28 12
27 69 -17 -17 47 38 18 -22
34 -66 -25 -15 -82 29 -56 -28
57 22 -31 8 33 110 -32 -27
-69 -41 -89 9 39 127 -54 40
70 -83 47 -15 16 -3 26 13
20 -28 46 -58 34 33 20 12
2 -45 34 -90 49 -34 9 -121
49 -43 91 -110 57 7 54 -1
64 -42 106 -35 70 -45 127 -39
-84 14 49 -31 -77 -16 54 -127
-30 -15 50 17 -49 -21 37 17
-40 -10 95 -3 -30 -15 69 63
-21 -5 41 35 -38 2 14 26
-25 -6 0 42 -3 -64 1 0
3 -84 0 -29 5 -52 8 -13
4 -87 10 -17 5 -127 10 -56
25 -78 7 -57 7 -57 6 -14
8 -95 35 -36 40 -57 19 -22
00000000: 01b7 0804 0381 0401 04b7 fe02 03d3 0103
00000010: 10c8 f604 14b6 fded 0bec ff14 15d8 ef10
00000020: 12d7 02f7 1cbc 50e9 cbe0 f7ab e6ed eae6
00000030: 79f3 3abc d30e f6b0 4fc6 0af8 ed9e fd35
00000040: a7bb d71c 7fc9 1c0c 1b45 efef 2f26 12ea
00000050: 22be e7f1 ae1d c8e4 3916 e108 216e e0e5
00000060: bbd7 a709 277f ca28 46ad 2ff1 10fd 1a0d
00000070: 14e4 2ec6 2221 140c 02d3 22a6 31de 0987
00000080: 31d5 5b92 3907 36ff 40d6 6add 46d3 7fd9
00000090: ac0e 31e1 b3f0 3681 e2f1 3211 cfeb 2511
000000a0: d8f6 5ffd e2f1 453f ebfb 2923 da02 0e1a
000000b0: e7fa 002a fdc0 0100 03ac 00e3 05cc 08f3
000000c0: 04a9 0aef 0581 0ac8 19b2 07c7 07c7 06f2
000000d0: 08a1 23dc 28c7 13ea

model_6/conv2d_11/Conv2D i1 [4, 3, 3, 2]
-26 1 -45 89 17 -102 10 -90
-60 127 8 -117 -2 -52 -40 126
-27 77 -6 7 -49 -13 -20 -19
-61 -5 27 -37 57 -2 -71 -9
39 -10 127 61 104 -73 110 -117
-18 -40 -127 64 -54 70 63 -10
-70 16 22 70 94 -90 -67 -9
-72 5 -65 -11 -109 -9 -127 10
-69 5 -101 -12 -101 30 -42 21
00000000: e601 d359 119a 0aa6 c47f 088b fecc d87e
00000010: e54d fa07 cff3 eced c3fb 1bdb 39fe b9f7
00000020: 27f6 7f3d 68b7 6e8b eed8 8140 ca46 3ff6
00000030: ba10 1646 5ea6 bdf7 b805 bff5 93f7 810a
00000040: bb05 9bf4 9b1e d615

model_6/conv2d_10/Conv2D i1 [2, 3, 3, 3]
-23 24 -3 6 -6 -1 -36 44
-14 -2 -6 14 22 -23 5 -26
16 15 -20 17 -7 119 -127 28
61 -68 16 -38 -5 10 -13 -10
9 -39 -21 45 82 -79 68 127
-86 42 -42 20 -2 88 -118 117
96 -109 79 -18 -56 81
00000000: e918 fd06 faff dc2c f2fe fa0e 16e9 05e6
00000010: 100f ec11 f977 811c 3dbc 10da fb0a f3f6
00000020: 09d9 eb2d 52b1 447f aa2a d614 fe58 8a75
00000030: 6093 4fee c851
